models/best_baseline_model.pt (torch, 8997 bytes, 5 tensors)

lstm.weight_ih_l0 f4 [40, 25]
0.13215646 0.17633148 -0.24970907 0.20904605 0.4328023 0.38694912 -0.07481914 -0.0464117
0.2613303 -0.075939514 0.07029518 -0.035523012 0.092202954 0.12714218 0.33661598 -0.31656727
0.2878107 0.27305895 0.31193513 -0.048847705 0.013828993 0.234431 -0.16582657 0.07660634
-0.23887227 0.29132295 -0.22120091 0.26722422 0.2214074 0.22263029 0.12648548 -0.046407323
-0.2709147 -0.17114873 0.14276098 0.02564869 -0.09558948 0.22933479 0.20735262 0.033970255
0.20844719 -0.05152622 0.17009515 0.32654542 0.10840181 -0.08808408 0.09405216 0.13876729
0.041150127 0.45180413 -0.08034978 -0.14048272 -0.18148385 0.07237148 -0.062549904 0.08623489
0.078521416 -0.31787053 -0.07362146 0.1640649 -0.24139364 -0.075418316 -0.26538098 0.036519792
-0.0760246 -0.1528271 0.18429932 -0.028536811 0.24427001 0.050860863 -0.12841012 0.06260919
-0.13694173 0.15140183 0.26689443 0.07348969 0.25541523 -0.142723 0.28350896 -0.12704983
-0.042911336 -0.0057456195 -0.11887841 0.09325915 0.109253354 0.29108557 -0.09839546 0.023633018
0.3217383 -0.117488414 -0.051113952 0.08399542 0.0007069689 -0.07422557 -0.253931 -0.11536003
0.41403013 0.10685023 0.14769647 0.14880593 0.4147019 0.34245822 0.38659352 0.26488414
0.33446243 0.008648578 -0.10154495 -0.10413641 0.005949694 0.13212472 0.18690865 0.25966722
0.2610843 -0.119273506 0.44262084 0.044307157 0.35782334 0.04961636 -0.16402797 0.42774424
0.24569932 0.24342068 0.3747027 0.36380517 -0.0005931504 0.35936344 -0.026364272 0.33005875
0.15619753 0.12151643 0.090360895 0.08318365 -0.06293287 -0.28191042 -0.0038971184 0.03079289
-0.025498148 0.3399756 -0.067583606 -0.18516265 0.12978348 -0.093617186 0.15960899 -0.14783709
-0.32074755 -0.22740754 0.02120282 -0.079720564 -0.056216605 0.02573999 0.0048299544 -0.06713638
0.11885084 0.44410717 0.52666646 0.08945709 -0.2836704 -0.10555736 -0.37412676 0.18829966
0.07495297 -0.08476939 -0.3194754 0.056849785 -0.32811388 0.13709958 0.13312727 -0.099631034
-0.24950579 -0.050785065 -0.014901402 -0.09688398 0.08438284 0.1586601 0.20926346 -0.26688763
-0.23901689 -0.1126831 0.23111208 -0.4222543 0.2203475 0.22375672 0.023836952 0.0027608913
0.090100355 -0.0014893496 0.1683929 0.17023769 0.39151025 0.4218641 0.32005087 -0.297596
0.056250934 0.19787139 0.22713278 0.16067338 0.4348354 0.22388856 0.1881848 0.5013425
0.053218324 -0.1360478 -0.023533816 0.24996024 0.36336738 0.09363797 -0.05171051 0.2906832
0.35548118 0.060201753 0.11480227 0.027310245 0.31520858 0.21083522 0.40240562 -0.16023126
0.09936642 0.040772516 -0.15420133 0.42681077 0.24792704 0.2064558 0.02403727 0.23378193
0.28450236 0.06504495 0.12074716 0.29342666 0.06470985 0.43654802 -0.0487404 -0.19949083
0.2969223 0.1283308 0.032731716 -0.11824479 0.37292257 0.19785099 0.14956187 0.07143982
-0.034883775 0.31841025 0.07978776 0.26693264 -0.02973745 -0.034429528 0.29754964 -0.027764607
-0.35730222 -0.055701952 -0.106091596 0.15172377 -0.22910559 -0.107774526 0.28355592 0.084079824
00000000: 0654 073e 3d90 343e bcb3 7fbe 2b10 563e
00000010: 4398 dd3e 321e c63e c73a 99bd 321a 3ebd
00000020: 16cd 853e 2d86 9bbd ebf6 8f3d 9480 11bd
00000030: e7d4 bc3d 8f31 023e ee58 ac3e 1b15 a2be
00000040: ed5b 933e 62ce 8b3e f6b5 9f3e 8814 48bd
00000050: 0093 623c ae0e 703e 71ce 29be c9e3 9c3d
00000060: ef9a 74be 4828 953e 7e82 62be 9dd1 883e
00000070: 9fb8 623e 32f9 633e 6985 013e 9b15 3ebd
00000080: 55b5 8abe 9d41 2fbe ef2f 123e 341d d23c
00000090: 6bc4 c3bd bdd6 6a3e 3f54 543e 6524 0b3d
000000a0: 2e73 553e 280d 53bd 6c2d 2e3e f630 a73e
000000b0: c501 de3d 6d65 b4bd 6b9e c03d 0319 0e3e
000000c0: 098d 283d df52 e73e 6d8e a4bd b4da 0fbe
000000d0: e7d6 39be 8037 943d 2a1a 80bd eb9b b03d
000000e0: d6cf a03d edbf a2be d9c6 96bd a100 283e
000000f0: e52f 77be eb74 9abd 04e0 87be c795 153d
00000100: c9b2 9bbd b57e 1cbe f6b8 3c3e 08c6 e9bc
00000110: eb21 7a3e 7b53 503d f17d 03be 3f39 803d
00000120: 743a 0cbe 1509 1b3e 63a6 883e c381 963d
00000130: c9c5 823e fa25 12be 1628 913e 5a19 02be
00000140: ccc3 2fbd c045 bcbb 8676 f3bd a7fe be3d
00000150: 39c0 df3d 2b09 953e 8f83 c9bd 089a c13c
00000160: e2ba a43e c49d f0bd dd5c 51bd ca05 ac3d
00000170: e153 393a 9303 98bd 3e03 82be e141 ecbd
00000180: c2fb d33e 4bd4 da3d be3d 173e 9560 183e
00000190: cf53 d43e af56 af3e 96ef c53e e59e 873e
000001a0: a93e ab3e c4b2 0d3c ccf6 cfbd 7845 d5bd
000001b0: a7f5 c23b b44b 073e fb64 3f3e 1af3 843e
000001c0: d7ac 853e ab45 f4bd 339f e23e 6c7b 353d
000001d0: 9f34 b73e 863a 4b3d f3f6 27be 4b01 db3e
000001e0: 9a98 7b3e 4543 793e 08d9 bf3e ac44 ba3e
000001f0: a67d 1bba 7cfe b73e e3f9 d7bc 76fd a83e
00000200: 3ff2 1f3e 9bdd f83d 220f b93d 315c aa3d
00000210: f3e2 80bd 9056 90be cc66 7fbb 5f41 fc3c
00000220: 7ee1 d0bc 4811 ae3e 4669 8abd 479b 3dbe
00000230: f6e5 043e 5eba bfbd 8a70 233e 9b62 17be
00000240: 0639 a4be 86dd 68be 89b1 ad3c 8944 a3bd
00000250: 6243 66bd acdc d23c 9844 9e3b cc7e 89bd
00000260: 1268 f33d 0462 e33e 9dd3 063f 4735 b73d
00000270: 3f3d 91be 752e d8bd 8b8d bfbe a0d1 403e
00000280: f180 993d 939b adbd 4892 a3be 52db 683d
00000290: 8bfe a7be d563 0c3e 8452 083e 5b0b ccbd
000002a0: 727e 7fbe 0004 50bd 0325 74bc 1c6b c6bd
000002b0: e9d0 ac3d cb77 223e 2949 563e 7fa5 88be
000002c0: d8c0 74be 66c6 e6bd a5a8 6c3e b731 d8be
000002d0: c6a2 613e 7b20 653e b645 c33c 12f0 343b
000002e0: 8986 b83d 4836 c3ba 306f 2c3e ca52 2e3e
000002f0: 0874 c83e 92fe d73e b5dd a33e 815e 98be
00000300: 6167 663d cc9e 4a3e 7f95 683e 9087 243e
00000310: bfa2 de3e 0b43 653e 84b3 403e fb57 003f
00000320: 75fb 593d 1d50 0bbe fdc9 c0bc 94f5 7f3e
00000330: 4a0b ba3e 44c5 bf3d 66ce 53bd 6ed4 943e
00000340: a101 b63e 1d96 763d 741d eb3d bcb9 df3c
00000350: 0563 a13e 30e5 573e 1c08 ce3e aa13 24be
00000360: 9f80 cb3d 1501 273d f4e6 1dbe f186 da3e
00000370: 96e0 7d3e 2669 533e cfe9 c43c 8864 6f3e
00000380: 4baa 913e 4936 853d 494a f73d 053c 963e
00000390: 9986 843d 3983 df3e 03a4 47bd 5347 4cbe
000003a0: 3306 983e 2669 033e b111 063d 532a f2bd
000003b0: b5ef be3e 7399 4a3e bf26 193e 0a4f 923d
000003c0: 4ae2 0ebd ab06 a33e c467 a33d 65ab 883e
000003d0: f49b f3bc fa05 0dbd 6d58 983e 9a72 e3bc
000003e0: 51f0 b6be bb27 64bd 8d46 d9bd 7a5d 1b3e
000003f0: a89a 6abe e4b8 dcbd 3e2e 913e 0b32 ac3d

lstm.weight_hh_l0 f4 [40, 10]
-0.23998836 0.35305044 0.31159946 -0.05346061 -0.33354324 -0.29306367 -0.26535293 0.021253636
0.16643725 -0.3143731 0.13484864 0.37277308 0.3157141 0.07895185 0.039810326 0.05026149
0.10722063 0.0992563 -0.10933877 0.03160684 -0.30063888 -0.080991305 0.31390134 0.090796754
0.04693991 -0.053197447 0.15857174 0.26762414 -0.2971382 -0.03932952 -0.06516802 0.19910373
-0.092266954 0.2314499 -0.024543274 -0.17430504 -0.2738036 0.25121784 -0.275202 0.21179684
-0.42634118 0.041343328 -0.021898322 0.38463798 0.32159862 -0.6512998 0.62954056 -0.2362829
0.5544143 -0.12848078 -0.29289404 -0.16497742 -0.25486815 0.095793605 -0.29193285 0.11395135
0.087285675 -0.2079504 -0.19017461 -0.24533828 -0.17244683 0.18167333 0.1828842 0.2348935
-0.24231851 -0.027748676 0.106194675 0.014671923 0.117319986 -0.12330115 -0.1157781 0.08079057
0.0014927681 0.33031988 0.20233835 -0.36885843 0.21420649 -0.21331494 0.07396984 -0.16085914
-0.25059056 0.34752792 0.49386021 0.39868295 0.19602944 -0.27388528 0.007996396 -0.16443187
0.044291962 0.029624874 -0.03062129 0.1438224 0.04959933 0.306808 -0.1906997 -0.28539094
0.19824049 -0.1414654 -0.06029076 0.14406367 0.07339414 0.12867181 0.08750316 -0.044090327
0.0995573 0.26151845 -0.23077191 -0.05472345 0.3408702 0.07539115 -0.40717933 0.02004066
-0.006548518 0.28091747 0.295476 0.11913337 0.10862934 0.14221027 -0.031738542 -0.2448149
0.06957758 -0.04329773 0.013038026 -0.2006824 0.1224548 -0.25049582 -0.067354955 -0.069078855
-0.1933934 0.098586544 -0.37587035 0.35436597 0.21267222 -0.08246191 0.059519712 0.026387557
0.107550845 -0.058593415 -0.21283887 0.05374942 0.0020218242 -0.2970902 0.09615873 0.17394595
-0.39582273 0.10190845 0.2771571 0.14489248 -0.16187032 -0.09951838 -0.33777606 0.12972689
-0.074450925 0.34705782 -0.18840055 0.069353364 0.27514705 -0.26863113 -0.2107012 -0.092759594
-0.21025437 0.2540635 0.019442813 -0.0772108 0.08054436 -0.16009669 -0.08932082 -0.02362538
0.23213813 0.020710733 -0.48239765 0.29702106 0.5180522 -0.12928098 0.41417262 -0.36077678
0.116294116 -0.52711236 0.5139348 -0.35154504 -0.2779452 0.010730455 0.25892845 -0.028500112
0.106257714 0.07062858 0.067133404 -0.3299158 0.24905828 -0.15452848 0.049573395 -0.061589196
-0.112923585 -0.23613486 -0.05764267 -0.0045731645 -0.23511581 0.13155808 -0.204276 0.04086892
0.072855964 -0.18157521 0.15968601 -0.29549393 0.22201666 0.27453542 0.26803795 -0.30006087
-0.124073714 0.2935838 0.0044859 0.36282656 0.16091955 0.15230231 -0.29399383 -0.24783589
-0.08576501 0.09093184 0.00074491027 -0.18273547 0.07389161 0.23911521 -0.23577794 0.16290018
-0.18002354 0.09354465 0.2658386 -0.11761314 0.10293318 0.26858568 -0.26959944 0.121421725
0.404579 0.07109357 -0.036241077 0.13146529 0.17015193 0.03852849 0.13296793 -0.07189424
-0.3154847 0.37507764 -0.039582126 -0.14281887 -0.01573749 0.2774766 -0.29476383 0.026823318
-0.13146988 0.19981483 -0.0048722196 -0.22530448 -0.0601246 0.019501822 -0.058479782 -0.14068438
00000000: 82bf 75be 07c3 b43e f789 9f3e 83f9 5abd
00000010: 2ec6 aabe 710c 96be 57dc 87be 1b1c ae3c
00000020: 876e 2a3e 83f5 a0be c315 0a3e 1ddc be3e
00000030: 47a5 a13e 82b1 a13d 2710 233d fede 4d3d
00000040: 7d96 db3d e346 cb3d 01ed dfbd 2d76 013d
00000050: 57ed 99be c5de a5bd adb7 a03e a6f3 b93d
00000060: 1044 403d 91e5 59bd a160 223e 0806 893e
00000070: 8022 98be fe17 21bd d076 85bd d9e1 4b3e
00000080: 75f6 bcbd 3401 6d3e fa0e c9bc 057d 32be
00000090: fc2f 8cbe a09f 803e 47e7 8cbe 45e1 583e
000000a0: 6449 dabe 9f57 293d 1c64 b3bc 45ef c43e
000000b0: 93a8 a43e 95bb 26bf 9229 213f 25f4 71be
000000c0: 18ee 0d3f 7790 03be 35f6 95be d7ef 28be
000000d0: 147e 82be 702f c43d 3978 95be 535f e93d
000000e0: d5c2 b23d f3f0 54be 22bd 42be f539 7bbe
000000f0: e795 30be 9308 3a3e ff45 3b3e ec87 703e
00000100: 5822 78be 3151 e3bc 987c d93d 8162 703c
00000110: 7645 f03d 5085 fcbd 121d edbd 8775 a53d
00000120: fca8 c33a b01f a93e c931 4f3e 03db bcbe
00000130: f258 5b3e 3b6f 5abe 807d 973d 42b8 24be
00000140: 684d 80be 2eef b13e 3fdb fc3e 2c20 cc3e
00000150: f1bb 483e b13a 8cbe 5103 033c d460 28be
00000160: 7d6b 353d ddaf f23c 80d9 fabc 2e46 133e
00000170: ab28 4b3d f015 9d3e c846 43be c31e 92be
00000180: 8eff 4a3e 4edc 10be 72f3 76bd 6d85 133e
00000190: ab4f 963d 8bc2 033e db34 b33d 0f98 34bd
000001a0: b3e4 cb3d bfe5 853e 794f 6cbe b225 60bd
000001b0: 8a86 ae3e ad66 9a3d cf79 d0be 4f2c a43c
000001c0: f394 d6bb 6ad4 8f3e a148 973e 32fc f33d
000001d0: 0f79 de3d 929f 113e 4600 02bd c2b0 7abe
000001e0: b17e 8e3d f658 31bd 729d 553c b07f 4dbe
000001f0: 95c9 fa3d fd40 80be 65f1 89bd 3779 8dbd
00000200: eb08 46be bee7 c93d 1472 c0be 756f b53e
00000210: bfc6 593e cae1 a8bd f1ca 733d b82a d83c
00000220: 9e43 dc3d a6ff 6fbd 6ff2 59be 5a28 5c3d
00000230: 9580 043b 351c 98be deee c43d e31e 323e
00000240: 47a9 cabe 61b5 d03d 89e7 8d3e b25e 143e
00000250: 55c1 25be 4bd0 cbbd fcf0 acbe 20d7 043e
00000260: ba79 98bd 90b1 b13e 13ec 40be 2309 8e3d
00000270: 13e0 8c3e 058a 89be 0ec2 57be bef8 bdbd
00000280: ec4c 57be 9c14 823e 8946 9f3c b220 9ebd
00000290: 71f4 a43d 63f0 23be d6ed b6bd 038a c1bc
000002a0: 9eb5 6d3e 8ea9 a93c d3fc f6be 2513 983e
000002b0: 129f 043f 3c62 04be 6f0e d43e bcb7 b8be
000002c0: 9c2b ee3d d6f0 06bf 3b91 033f b6fd b3be
000002d0: d54e 8ebe cace 2f3c 4592 843e 1179 e9bc
000002e0: a59d d93d b8a5 903d 3d7d 893d b9ea a8be
000002f0: 2209 7f3e b73c 1ebe 790d 4b3d f444 7cbd
00000300: 7b44 e7bd 56cd 71be b81a 6cbd 7cda 95bb
00000310: 33c2 70be 29b7 063e ba2d 51be 2b66 273d
00000320: 8235 953d daee 39be bb84 233e fb4a 97be
00000330: 5658 633e e88f 8c3e 453c 893e 94a1 99be
00000340: 5c1a febd 9e50 963e 75fe 923b 67c4 b93e
00000350: 18c8 243e 23f5 1b3e 5c86 96be b1c8 7dbe
00000360: 91a5 afbd 793a ba3d 1546 433a 021f 3bbe
00000370: 7c54 973d 9eda 743e c66f 71be 4ecf 263e
00000380: 1758 38be 5694 bf3d ff1b 883e 28df f0bd
00000390: a2ce d23d 1084 893e f008 8abe f4ab f83d
000003a0: fb24 cf3e 8199 913d 8671 14bd d69e 063e
000003b0: 4f3c 2e3e 0dd0 1d3d bf28 083e 4a3d 93bd
000003c0: 3687 a1be 2d0a c03e de20 22bd 1c3f 12be
000003d0: e9eb 80bc 6a11 8e3e 49eb 96be 93bc db3c
000003e0: 0aa0 06be 429c 4c3e 24a7 9fbb 38b6 66be
000003f0: 3645 76bd 49c2 9f3c 7f88 6fbd 910f 10be

lstm.bias_ih_l0 f4 [40]
0.14581951 -0.15650114 0.1900211 0.31203136 0.17026523 0.1541223 -0.1731583 0.13591868
0.46043202 0.29042283 0.0362448 -0.1313753 0.3526794 0.3105079 -0.26281852 0.08907946
0.00445954 0.028968731 0.37570676 -0.118442394 -0.24838798 0.012603565 0.13939339 0.25081816
-0.19829336 0.09092209 -0.025457207 -0.06658896 0.26973662 0.17985238 0.10615017 -0.11269459
0.1665794 -0.12131791 0.098207556 -0.0056526093 -0.23677416 -0.007176771 0.24826883 0.3440309
00000000: b651 153e d641 20be e494 423e 93c2 9f3e
00000010: 025a 2e3e 3cd2 1d3e 6950 31be 442e 0b3e
00000020: bfbd eb3e 4db2 943e 6d75 143d 3f87 06be
00000030: 6592 b43e e4fa 9e3e 2690 86be 4b6f b63d
00000040: 5521 923b d54f ed3c a35c c03e ed91 f2bd
00000050: 6b59 7ebe 2f7f 4e3c 24bd 0e3e 3d6b 803e
00000060: 6a0d 4bbe 5c35 ba3d a28b d0bc cb5f 88bd
00000070: eb1a 8a3e 392b 383e 4365 d93d 6ccc e6bd
00000080: ca93 2a3e 8675 f8bd 0b21 c93d 8639 b9bb
00000090: ed74 72be 1e2b ebbb 2f3a 7e3e d124 b03e

lstm.bias_hh_l0 f4 [40]
-0.082107015 0.12681894 -0.0648423 -0.11734436 0.5499428 0.10151185 0.17916596 0.3136007
0.06208317 0.17369518 0.09901492 0.28854832 0.19038258 0.22347897 -0.007747791 -0.18831085
0.16733505 -0.042551704 0.015346661 -0.10689065 0.13551949 -0.18883294 -0.10597647 0.19061713
0.18835112 -0.1955165 0.25944623 -0.23394477 0.28088525 -0.30398935 -0.25367808 0.34854904
0.08277894 -0.16589077 0.32520553 -0.19799826 -0.20853512 0.19407603 0.21415995 0.3367792
00000000: b927 a8bd d3dc 013e 0acc 84bd 3d52 f0bd
00000010: 0dc9 0c3f 72e5 cf3d 4877 373e 4590 a03e
00000020: ec4a 7e3d 26dd 313e 56c8 ca3d 9bbc 933e
00000030: a7f3 423e acd7 643e 2ee1 fdbb 8fd4 40be
00000040: e159 2b3e b24a 2ebd 9070 7b3c 7ce9 dabd
00000050: 9fc5 0a3e 6c5d 41be 310a d9bd 2331 433e
00000060: 1edf 403e 7a35 48be 23d6 843e 388f 6fbe
00000070: 31d0 8f3e 7ea4 9bbe 18e2 81be 0575 b23e
00000080: 0188 a93d 45df 29be 5781 a63e 0ec0 4abe
00000090: 3b8a 55be debb 463e bf4c 5b3e 536e ac3e

dense.weight f4 [1, 10]
-0.19288427 0.29261088 0.2637202 0.021950774 0.53037876 -0.28363228 0.28132793 0.31294417
-0.025568567 -0.18778735
00000000: 7483 45be 18d1 953e 5606 873e 1cd2 b33c
00000010: e7c6 073f 4038 91be 370a 903e 383a a03e
00000020: 2c75 d1bc 544b 40be
